DQN_player_agent/dqn_policy_net_1.pt (torch, 334295 bytes, 6 tensors)

net.0.weight f4 [128, 336]
0.08104769 -0.12937361 -0.11512501 -0.04523322 0.04489514 0.03074739 -0.11949531 -0.12336453
0.0916907 0.04920765 -0.008390106 -0.09913907 -0.05703457 0.16382737 -0.07079951 -0.09935583
0.15175119 -0.020135311 -0.07374971 0.039939407 -0.09684899 -0.088836335 -0.08223134 -0.08601406
-0.03582628 0.010536779 -0.017524429 -0.043112583 0.19590436 -0.09658392 0.07576909 -0.12451242
0.0948161 0.031415332 0.009891019 -0.008486403 -0.022510983 -0.048675373 -0.07358621 -0.0016697322
-0.27569234 0.04735144 0.02153414 0.095170245 0.003510365 -0.014679182 0.124207966 0.010806378
0.10582852 -0.022975769 0.0031281288 0.029969757 -0.037063457 -0.0223536 -0.017859552 -0.0066374433
-0.11594228 0.17337836 -0.15131061 0.062975354 -0.09411339 0.029043162 0.06553881 -0.08412778
0.044359203 0.09397621 -0.09683283 -0.0048676743 -0.054583367 0.033671763 0.10373281 0.032332517
-0.03463998 0.07537588 0.08389988 -0.09787569 -0.06591323 -0.037940938 0.15938132 0.0084314495
0.04031751 0.056538377 -0.083209686 -0.022042139 0.06319584 -0.019919775 0.27756637 -0.0066241426
0.0959321 0.002769643 0.031573467 -0.021191366 -0.06910485 -0.117922544 -0.023458146 -0.045259256
0.10094993 0.020637266 0.08695986 -0.12531534 0.08221031 0.11339297 -0.023248628 -0.07754505
0.1476068 -0.13834383 0.0039188075 -0.08984021 0.09616217 -0.34316742 0.025811883 -0.05265214
-0.06674965 0.123415075 0.114880525 -0.0060635814 0.01691198 0.0048028403 0.13275634 0.00371151
0.11895656 -0.13444453 0.043811765 -0.008480543 0.11027108 -0.09871645 -0.07164512 -0.0040217745
-0.20214199 0.11180797 0.026597036 0.0025424617 -0.025244111 0.032430746 0.17379537 0.01498316
0.068699166 -0.15609908 -0.01928244 0.06813218 0.007699705 -0.18475272 0.17721103 0.08132046
-0.1321516 -0.009114312 0.051691 0.07984339 -0.06903562 0.18731973 -0.1044713 -0.119598836
0.22063212 -0.06776561 0.058821347 -0.07041784 -0.097129636 -0.27626944 0.010555445 -0.006612319
0.02409214 0.41059634 0.021709032 -0.0067337025 -0.07760839 -0.044961765 0.1038667 -0.097250976
0.31259847 -0.20249398 -0.24261577 -0.063110895 0.19537881 -0.062205613 0.10596914 -0.16297151
0.37618592 -0.06716499 0.030599965 0.112072945 0.075280815 0.042016096 -0.020467356 0.006621873
0.42980435 0.111401856 -0.13413376 0.057163503 -0.014757852 0.06767337 0.03797444 -0.069777876
0.12810406 0.11196478 0.08687687 0.12133677 0.099609695 -0.23907311 0.022109605 0.0031283484
0.18485148 0.08375663 0.09617337 0.09389028 0.012504951 0.23199025 -0.121805884 -0.01280499
0.2249656 0.05747366 0.034162972 0.093169175 0.086872585 -0.07422428 0.0641143 -0.04110414
0.005151537 0.11866769 0.007912335 0.15161715 0.24344748 0.12348852 -0.14502408 -0.051663693
0.1518555 0.069828786 -0.011589449 0.053351853 -0.012773994 0.004840594 0.18010916 -0.07021056
-0.060478996 0.14380518 0.20369804 0.2160019 0.18008594 0.14396238 -0.2500014 0.016053092
0.20328915 -0.26750404 -0.026496703 0.13101228 0.18274346 -0.15594023 0.06809482 -0.06794235
0.8244009 0.16930436 -0.12586142 -0.11174913 -0.21502604 0.022488048 -0.1051165 -0.269759
00000000: 55fc a53d 847a 04be a9c6 ebbd 7846 39bd
00000010: f7e3 373d f3e1 fb3c f5b9 f4bd 8ba6 fcbd
00000020: 55c8 bb3d f68d 493d a876 09bc 6d09 cbbd
00000030: 159d 69bd 5dc2 273e 55ff 90bd 127b cbbd
00000040: aa64 1b3e cff2 a4bc 170a 97bd 8197 233d
00000050: c358 c6bd d3ef b5bd e868 a8bd 2428 b0bd
00000060: 94be 12bd 74a2 2c3c 648f 8fbc d296 30bd
00000070: 279b 483e cacd c5bd d32c 9b3d 5e00 ffbd
00000080: f22e c23d 5dad 003d f10d 223c 8e0a 0bbc
00000090: f468 b8bc d45f 47bd 5eb4 96bd eada daba
000000a0: 8c27 8dbe 95f3 413d 5d68 b03c 9ee8 c23d
000000b0: 270e 663b f480 70bc bf60 fe3d 3c0d 313c
000000c0: a0bc d83d ae37 bcbc 4b01 4d3b 2383 f53c
000000d0: dacf 17bd e61e b7bc 324e 92bc e97e d9bb
000000e0: 2573 edbd 198a 313e 2bf1 1abe 39f9 803d
000000f0: 85be c0bd edeb ed3c 3639 863d 2f4b acbd
00000100: ffb1 353d 9976 c03d 4a50 c6bd 0381 9fbb
00000110: cf92 5fbd 67eb 093d de71 d43d 1a6f 043d
00000120: a7e2 0dbd ab5e 9a3d b3d3 ab3d 0d73 c8bd
00000130: 84fd 86bd f567 1bbd db34 233e 1024 0a3c
00000140: f923 253d c994 673d d769 aabd b791 b4bc
00000150: d26c 813d cc2e a3bc 2e1d 8e3e 560f d9bb
00000160: 0d78 c43d e682 353b 2e53 013d 8499 adbc
00000170: d886 8dbd 6081 f1bd 4c2b c0bc c561 39bd
00000180: d6be ce3d 7c0f a93c 0318 b23d aa52 00be
00000190: e15d a83d 933a e83d e873 bebc f0cf 9ebd
000001a0: 3d26 173e 01aa 0dbe 5769 803b 25fe b7bd
000001b0: acf0 c43d a4b3 afbe 7173 d33c c5a9 57bd
000001c0: 0ab4 88bd 0bc1 fc3d 7b46 eb3d 02b1 c6bb
000001d0: fe8a 8a3c 2561 9d3b 47f1 073e ce3c 733b
000001e0: 7f9f f33d d4ab 09be f773 333d faf1 0abc
000001f0: ced5 e13d da2b cabd adba 92bd 17c9 83bb
00000200: 4ffe 4ebe 94fb e43d 07e2 d93c 6e9f 263b
00000210: bdcc cebc 1ad6 043d 6af7 313e ee7b 753c
00000220: 26b2 8c3d 70d8 1fbe 35f6 9dbc e288 8b3d
00000230: cf4d fc3b d12f 3dbe cf76 353e 578b a63d
00000240: c052 07be 3254 15bc f1b9 533d ee84 a33d
00000250: 8c62 8dbd bed0 3f3e 0df5 d5bd 3cf0 f4bd
00000260: 63ed 613e b2c8 8abd a7ee 703d 3a37 90bd
00000270: e7eb c6bd 3073 8dbe bff0 2c3c 27ac d8bb
00000280: e15c c53c af39 d23e 24d7 b13c 64a6 dcbb
00000290: 26f1 9ebd d429 38bd 10b8 d43d 852b c7bd
000002a0: e80c a03e 955a 4fbe 4570 78be 4940 81bd
000002b0: 6211 483e 50cb 7ebd 5906 d93d 01e2 26be
000002c0: 719b c03e cc8d 89bd c7ac fa3c 8086 e53d
000002d0: d42c 9a3d 1219 2c3d 28ab a7bc 4cfc d83b
000002e0: 510f dc3e a826 e43d 5c5a 09be 4724 6a3d
000002f0: ebca 71bc 5698 8a3d 168b 1b3d b4e7 8ebd
00000300: b62d 033e ca4d e53d 80ec b13d 6a7f f83d
00000310: 2b00 cc3d 95cf 74be 341f b53c fa04 4d3b
00000320: b549 3d3e 9988 ab3d 8bf6 c43d 8c49 c03d
00000330: 91e1 4c3c da8e 6d3e 5d75 f9bd 05cc 51bc
00000340: 625d 663e 8069 6b3d 79ee 0b3d 7bcf be3d
00000350: 41ea b13d e602 98bd 5c4e 833d d15c 28bd
00000360: 39ce a83b 0c08 f33d bda2 013c 8741 1b3e
00000370: 4c4a 793e 8de7 fc3d 3181 14be 4f9d 53bd
00000380: 0280 1b3e 6502 8f3d ace1 3dbc 7987 5a3d
00000390: 044a 51bc d89d 9e3b 896e 383e 8eca 8fbd
000003a0: d3b8 77bd aa41 133e 3896 503e 9a2f 5d3e
000003b0: 7368 383e e06a 133e 2f00 80be c681 833c
000003c0: 082b 503e 4af6 88be 9d0f d9bc 1528 063e
000003d0: 1a21 3b3e ccae 1fbe 4c75 8b3d 5c25 8bbd
000003e0: f00b 533f 1f5e 2d3e d1e1 00be badc e4bd
000003f0: c92f 5cbe db38 b83c 5247 d7bd da1d 8abe

net.0.bias f4 [128]
0.15530924 0.10055175 0.16357997 0.11579191 0.11878941 0.23673582 0.12623386 0.054412756
0.15230578 0.07009682 0.14325765 0.03343062 0.08564345 0.08596379 0.09366669 0.15317273
0.1630741 0.18330984 0.124588996 0.116549626 0.21087745 0.12235605 0.10349361 0.16938317
0.057219557 0.16425374 0.12629993 0.10194467 0.020814914 0.19568956 0.051881723 0.073829554
0.11857081 0.104361385 0.034132387 0.12484208 -0.114737414 0.118993506 0.047741108 0.15894195
0.016149081 0.12962359 0.09427383 0.11451086 0.057987787 0.04383387 0.03599843 0.0845234
0.06930567 0.06836537 0.13757528 0.13808881 0.10624294 0.15451506 0.1180562 0.084406264
0.14057228 0.09534388 0.042735238 0.19477032 0.07471675 0.116737634 0.12099568 0.13717219
0.09252103 0.062236328 -0.123729736 0.13439287 0.046171214 0.06767724 0.08385901 0.08821754
0.09675947 0.22181708 0.13527736 0.12641847 0.17160605 0.086642526 -0.012760218 0.09279088
0.15380576 0.10836874 0.08098844 0.011511411 0.1051897 0.11721977 0.16021834 0.11305449
0.09122491 0.09552532 0.21069124 0.051400673 0.13671333 0.10998785 0.04821098 0.22763212
0.18135868 0.06909234 0.12637746 0.08949203 0.05557793 0.06522501 0.10121559 0.068451054
0.22350875 0.117519006 0.11345232 0.09133703 0.06930995 0.04711434 0.11781238 -0.10812249
0.22296514 0.14803468 0.5025391 0.07305084 0.2449599 0.09241356 0.057054188 0.030430745
0.051223528 0.09239249 0.2784587 0.17663577 0.1550103 0.065957405 0.07174046 0.24642223
00000000: 6309 1f3e 13ee cd3d 8281 273e 4f24 ed3d
00000010: dd47 f33d e06a 723e 7343 013e e9df 5e3d
00000020: 0cf6 1b3e ec8e 8f3d 22b2 123e 8cee 083d
00000030: d565 af3d c90d b03d 52d4 bf3d 50d9 1c3e
00000040: e6fc 263e 93b5 3b3e 8428 ff3d 92b1 ee3d
00000050: 42f0 573e cf95 fa3d 75f4 d33d c872 2d3e
00000060: 0e5f 6a3d 2232 283e c554 013e 5ec8 d03d
00000070: 0a84 aa3c d862 483e ee81 543d f333 973d
00000080: 41d5 f23d 6cbb d53d 67ce 0b3d 34ad ff3d
00000090: 73fb eabd deb2 f33d 2e8c 433d aec1 223e
000000a0: 144b 843c 0cbc 043e a312 c13d ab84 ea3d
000000b0: 9a84 6d3d 258b 333d 1773 133d 9b1a ad3d
000000c0: 22f0 8d3d 2503 8c3d 89e0 0c3e 2767 0d3e
000000d0: e695 d93d 3239 1e3e 73c7 f13d 31dd ac3d
000000e0: 2ef2 0f3e a743 c33d 250b 2f3d df71 473e
000000f0: 1805 993d 2414 ef3d 95cc f73d de76 0c3e
00000100: aa7b bd3d 85eb 7e3d 0466 fdbd 499e 093e
00000110: 071e 3d3d 5d9a 8a3d 46be ab3d 66ab b43d
00000120: d429 c63d 0424 633e 2686 0a3e d873 013e
00000130: 7fb9 2f3e a371 b13d 3c10 51bc 2509 be3d
00000140: 427f 1d3e 6ef0 dd3d 44dd a53d 5b9a 3c3c
00000150: b36d d73d eb10 f03d 4710 243e 1d89 e73d
00000160: 20d4 ba3d c7a2 c33d 72bf 573e 8389 523d
00000170: 94fe 0b3e 4f41 e13d e078 453d 6518 693e
00000180: 17b6 393e 4980 8d3d 1869 013e 9947 b73d
00000190: afa5 633d b194 853d 1f4a cf3d 1130 8c3d
000001a0: 7adf 643e cead f03d b159 e83d e90e bb3d
000001b0: 60f2 8d3d f7fa 403d 9e47 f13d 536f ddbd
000001c0: f950 643e 6796 173e 67a6 003f ae9b 953d
000001d0: c5d6 7a3e 5243 bd3d a7b1 693d e649 f93c
000001e0: c3cf 513d 4638 bd3d 2492 8e3e 02e0 343e
000001f0: 05bb 1e3e ad14 873d aaec 923d 1c56 7c3e

net.2.weight f4 [256, 128]
0.45900515 2.159044 0.19132078 0.6640552 0.40311125 0.15926005 1.1971761 0.6287811
0.09794177 0.20217572 1.2781816 0.43866566 0.8493958 1.0784296 1.1867741 1.4245148
0.31591296 0.7714985 1.8924325 0.49758264 0.012483975 0.67039984 1.043772 0.27063328
0.33017564 0.095337994 2.1059065 -0.001694482 1.890167 0.24301402 0.2558962 0.093572855
0.49863288 1.5244004 2.1634839 1.1754173 -2.1621835 0.41848415 0.5994194 1.4424676
0.6121337 0.39787343 0.59315777 1.0139886 0.41386956 1.6075853 0.35049587 0.35206628
0.34121388 -0.016973788 0.053197913 0.73330456 0.7840292 1.1138645 0.55133754 0.28379202
0.10115168 0.5579077 0.14403602 -0.05581232 0.18370903 0.36750007 0.7488676 1.4173276
0.39962688 0.9175128 -2.094575 1.3688793 0.4398604 1.4998053 2.0551078 0.4805653
0.6168035 0.21350588 0.09695358 1.6591809 1.6378546 0.4891275 0.49548542 0.98060656
0.6114942 0.8186187 0.5696518 0.44674724 0.87060773 1.040663 1.6186234 0.2081313
0.29521087 0.50520504 0.75400907 0.55327207 0.32103986 -0.14222725 0.24523495 0.116252
0.18429504 0.5531021 0.18754907 0.53626555 0.3650577 1.2280946 0.49956322 0.2162604
-0.026753478 0.50269693 0.5246688 0.19412546 0.87691456 1.4599314 1.4464428 -2.0477
0.0050166217 0.3823236 -0.06521768 0.30473763 0.16512926 0.4279944 1.5637044 0.354054
0.8919575 0.24027246 0.18863067 0.10794261 1.2283776 0.35076442 0.2899839 -0.050025947
0.53824115 2.2978227 0.28441653 0.5380235 0.049112838 0.3036279 0.950019 0.49407163
-0.08681758 0.31004587 1.3600612 0.4251594 1.0221374 0.7384914 1.2046564 1.5140619
0.36107686 0.84534 1.5962348 0.49319088 0.22725959 0.47738156 0.82081217 0.3424858
0.5388053 0.22805227 1.7788216 -0.09653962 1.5134846 0.30742824 0.30648172 0.117511995
0.7766609 1.4306229 2.2811894 1.2282965 -1.6806456 0.5252389 0.2441558 1.3182783
0.43654698 0.52483815 0.3632544 0.7764948 0.44597894 1.5349795 0.37271902 0.33786637
0.36861268 -0.3178448 0.08539331 0.7293771 0.4526086 0.7805193 0.3150844 0.41118315
-0.13169612 0.5315951 -0.05155316 0.060700588 0.2500413 0.12724698 0.5674746 1.6397107
0.55813044 0.3404442 -1.6198825 1.0863836 0.3924058 1.4335936 1.8482826 0.37465337
0.36840668 0.29921198 0.35685372 1.5123078 1.3277096 0.56732136 0.45681426 1.1293244
0.71854335 0.70119405 0.37127355 0.35412332 0.59268606 0.9738474 1.4454993 0.479902
0.3669449 0.46670052 0.77435523 0.32285556 0.15076883 -0.401307 0.32160088 0.26837862
0.3691927 0.56759995 0.2962272 0.34765124 0.22899455 1.016994 0.6823589 -0.024524737
0.20184018 0.27938318 0.340451 0.3187898 0.64705765 1.235058 1.464106 -1.6010467
0.19534743 0.5164579 0.2679647 -0.01667112 0.38252908 0.2564323 1.5586051 0.2883968
0.45960686 -0.07450989 0.29842824 0.4518052 1.227631 0.30220062 0.121760994 0.32064712
00000000: b902 eb3e c72d 0a40 98e9 433e 86ff 293f
00000010: 9964 ce3e 1115 233e 113d 993f ccf7 203f
00000020: b295 c83d 2707 4f3e 749b a33f c998 e03e
00000030: 0172 593f fb09 8a3f 37e8 973f 8056 b63f
00000040: 58bf a13e ed80 453f 3a3b f23f 27c3 fe3e
00000050: 9689 4c3c 539f 2b3f 529a 853f 7290 8a3e
00000060: c80c a93e 9140 c33d 2cc7 0640 6219 deba
00000070: fef0 f13f abd8 783e d404 833e 20a3 bf3d
00000080: cf4c ff3e 8d1f c33f 8576 0a40 1374 963f
00000090: 3761 0ac0 8e43 d63e 8d73 193f c7a2 b83f
000000a0: cbb4 1c3f 11b6 cb3e 30d9 173f 61ca 813f
000000b0: b6e6 d33e 5bc5 cd3f 3274 b33e 0842 b43e
000000c0: 96b3 ae3e 9d0c 8bbc 0ee6 593d d9b9 3b3f
000000d0: 23b6 483f 1d93 8e3f 7524 0d3f 304d 913e
000000e0: 9d28 cf3d 0ad3 0e3f 2e7e 133e 769b 64bd
000000f0: 381e 3c3e f828 bc3e c9b5 3f3f fe6a b53f
00000100: e59b cc3e 1ee2 6a3f 840d 06c0 7037 af3f
00000110: 6235 e13e 9ff9 bf3f e386 0340 a80c f63e
00000120: d6e6 1d3f 49a1 5a3e 998f c63d 0a60 d43f
00000130: 38a5 d13f eb6e fa3e 44b0 fd3e 0809 7b3f
00000140: e28a 1c3f ff90 513f b3d4 113f 0ebc e43e
00000150: 26e0 5e3f 7234 853f 0d2f cf3f 5f20 553e
00000160: e125 973e 1e55 013f bd06 413f 3da3 0d3f
00000170: 565f a43e 05a4 11be df1e 7b3e 8715 ee3d
00000180: d7b7 3c3e 1998 0d3f dd0c 403e b348 093f
00000190: d8e8 ba3e 3432 9d3f c0c6 ff3e 5e73 5d3e
000001a0: 1c2a dbbc bfb0 003f b250 063f d3c8 463e
000001b0: 797d 603f 08df ba3f 0a25 b93f 840d 03c0
000001c0: 7962 a43b ebbf c33e d990 85bd 9206 9c3e
000001d0: a517 293e 1522 db3e 7727 c83f 9146 b53e
000001e0: 5457 643f fc09 763e 6628 413e 0411 dd3d
000001f0: 7a3b 9d3f 6597 b33e c578 943e 02e8 4cbd
00000200: 2cca 093f 870f 1340 0b9f 913e e8bb 093f
00000210: 8b2a 493d 1e75 9b3e 7234 733f f5f6 fc3e
00000220: 6acd b1bd 55be 9e3e 7c16 ae3f 7eae d93e
00000230: 66d5 823f c60d 3d3f 2e32 9a3f c8cc c13f
00000240: 11df b83e 3468 583f 6c51 cc3f 8483 fc3e
00000250: bdb6 683e 5b6b f43e bf20 523f 4c5a af3e
00000260: 25ef 093f 8986 693e 6db0 e33f 90b6 c5bd
00000270: ddb9 c13f 3c67 9d3e 2ceb 9c3e 21aa f03d
00000280: 40d3 463f a71e b73f 02ff 1140 d238 9d3f
00000290: 651f d7bf 0e76 063f fa03 7a3e 58bd a83f
000002a0: 1683 df3e cb5b 063f 7bfc b93e 5dc8 463f
000002b0: 5a57 e43e 357a c43f 07d5 be3e d2fc ac3e
000002c0: cdba bc3e 8ebc a2be b0e2 ae3d 75b8 3a3f
000002d0: 50bc e73e 1dd0 473f be52 a13e 9986 d23e
000002e0: 59db 06be 9e16 083f 6829 53bd 2ea1 783d
000002f0: 6a05 803e 084d 023e 0446 113f 0ae2 d13f
00000300: a3e1 0e3f b44e ae3e 4f58 cfbf 9e0e 8b3f
00000310: 6ae9 c83e ff7f b73f 8694 ec3f 91d2 bf3e
00000320: cd9f bc3e 5032 993e 88b5 b63e 4d93 c13f
00000330: 63f2 a93f f93b 113f 8fe3 e93e b48d 903f
00000340: 75f2 373f 7481 333f 9117 be3e a74f b53e
00000350: 46ba 173f 104e 793f 1f06 b93f b7b5 f53e
00000360: 34e0 bb3e 5ff3 ee3e 253c 463f 534d a53e
00000370: 2563 1a3e 1c78 cdbe dfa8 a43e ec68 893e
00000380: d306 bd3e 3b4e 113f 17ab 973e 58ff b13e
00000390: 8c7d 6a3e dc2c 823f 13af 2e3f 1ae8 c8bc
000003a0: 31af 4e3e 500b 8f3e 984f ae3e 6b38 a33e
000003b0: 92a5 253f 6116 9e3f d367 bb3f 19ef ccbf
000003c0: 2809 483e 9636 043f ab32 893e df91 88bc
000003d0: dada c33e 184b 833e 5f80 c73f bfa8 933e
000003e0: 9751 eb3e a498 98bd 96cb 983e 0353 e73e
000003f0: 0323 9d3f 0aba 9a3e d45d f93d dc2b a43e

net.2.bias f4 [256]
-0.2496895 0.19717868 0.25804934 0.16600068 0.039525807 0.12141161 0.03255786 0.07690432
0.1417302 -0.20436312 0.20781733 0.2428851 0.17950806 0.1693318 0.24734409 0.04524307
0.026021281 0.2736716 0.061957926 0.14522436 0.33311832 0.17892216 0.006405063 0.5393116
0.8889234 0.14372918 0.30517998 0.08638182 0.0009142916 0.18200698 0.16870554 0.26639435
0.006209167 0.15187798 0.13752273 0.2628864 0.08431091 0.017711103 0.00065348897 0.10357512
-0.01772729 0.15945937 0.17105411 0.049949657 0.15684494 0.08497906 0.08899128 0.15616344
0.16655044 0.17542729 0.36963356 -0.0140616 0.03333749 0.09016916 0.04115583 0.034053523
0.1949486 -0.039406992 0.21425448 0.09250633 -0.43367982 0.1468169 0.07814551 0.12858891
0.17951365 0.2302886 0.48816282 0.18418926 0.22310111 0.04322128 -0.2710012 0.3364348
0.028790662 -0.03211263 -0.17248411 0.08359256 0.053422432 0.28023693 0.038356423 0.22760531
0.4895948 0.0010546932 -0.07260347 0.39232284 0.13756868 0.1566032 0.33403423 0.17699973
0.04838607 0.05279661 -0.061011862 0.30337346 0.05669035 -0.47271597 0.06476521 0.26596498
-0.089099936 -0.08090574 0.22854401 0.051220015 0.25577682 0.12570423 0.2484597 0.114759475
0.19500896 1.2205364 0.08897876 0.31063032 0.19754621 -0.04375505 0.05340602 1.1282212
0.967176 0.035888296 0.17178123 0.045812577 0.15901534 0.121280365 0.19103128 0.05866159
-0.0045255143 0.04045491 0.009896864 0.062051438 0.15887725 0.7000797 -0.013245008 0.18505703
0.25873503 0.06980914 1.071572 0.062076423 0.3046049 0.065930575 0.04266976 0.46642128
0.25061643 0.035579313 1.0133517 0.09408223 -0.054616988 0.14312676 0.034488413 0.056857478
0.010207127 0.064144954 0.10660696 -0.025850654 0.08985495 0.1749567 0.39906353 0.09161865
0.03898714 0.45234752 -0.06731457 0.060580242 0.13042152 0.12208154 0.30311534 0.11899379
1.0984256 0.13719703 0.062687956 0.065144956 0.07651136 0.0032811137 -0.10063958 0.02099433
0.013677709 0.028864335 0.13123156 0.044284113 0.18985172 -0.09697944 0.107647724 0.3682474
0.09636252 0.077406175 0.0846615 -0.2198838 -0.044969644 -0.1134988 0.065661356 0.14259572
0.3480424 0.017780434 0.035933305 0.023092318 0.19827074 0.05319067 0.1495791 0.34529424
0.3792921 -0.12219085 0.02747872 0.0765186 0.16374831 0.14376299 0.010104078 0.23869944
0.19776239 0.53621006 -0.05212841 0.09666543 -0.00058347767 0.027622143 0.20083605 -0.08109286
0.1396366 0.17681123 0.21755709 0.13384122 0.17275289 0.24771526 0.09054055 0.064833954
-0.22186238 0.13910699 0.17863005 0.036780287 0.18609299 0.027882257 0.030230254 0.2801993
-0.22036526 -0.021329679 0.23965412 0.12755837 0.099791676 -0.09652433 0.4202052 -0.1676256
0.06606803 0.07822652 0.025507746 0.13784349 0.10924917 0.01474441 0.39719167 0.056853447
0.03245508 0.1286984 0.054279175 0.2442552 0.22165263 0.007247009 -0.075674735 0.09328216
0.14002787 -0.11642404 0.040633827 0.16718 0.22526462 0.121352896 -0.15169783 0.11471928
00000000: 9bae 7fbe 35e9 493e 0b1f 843e 15fc 293e
00000010: d0e5 213d a6a6 f83d 645b 053d 0380 9d3d
00000020: b921 113e 9144 51be 11ce 543e dfb6 783e
00000030: f6d0 373e 5165 2d3e c547 7d3e cc50 393d
00000040: 952a d53c af1e 8c3e 98c7 7d3d b2b5 143e
00000050: 7c8e aa3e 5f37 373e 90e1 d13b 5310 0a3f
00000060: 7c90 633f be2d 133e 8d40 9c3e f4e8 b03d
00000070: 12ad 6f3a 0a60 3a3e 25c1 2c3e d764 883e
00000080: 4576 cb3b e785 1b3e c2d2 0c3e 0c99 863e
00000090: 33ab ac3d e016 913c e74e 2b3a 311f d43d
000000a0: d238 91bc 5149 233e cf28 2f3e 0398 4c3d
000000b0: f69b 203e 8009 ae3d 0f41 b63d 4fe9 1f3e
000000c0: 338c 2a3e 36a3 333e 9c40 bd3e a062 66bc
000000d0: e48c 083d 9caa b83d 0493 283d b57b 0b3d
000000e0: 9ba0 473e 3a69 21bd 8765 5b3e f573 bd3d
000000f0: 480b debe 2b57 163e c10a a03d d0ac 033e
00000100: 6dd2 373e c6d0 6b3e 7af0 f93e 1c9c 3c3e
00000110: 9e74 643e cc08 313d abc0 8abe 2f41 ac3e
00000120: 65da eb3c 8888 03bd ad9f 30be 9332 ab3d
00000130: 7bd1 5a3d 377b 8f3e a01b 1d3d 5e11 693e
00000140: 2bac fa3e a23d 8a3a 21b1 94bd 8ade c83e
00000150: cede 0c3e 975c 203e 8906 ab3e 6b3f 353e
00000160: 7930 463d 4241 583d 93e7 79bd c453 9b3e
00000170: 2434 683d d407 f2be 9fa3 843d 902c 883e
00000180: 077a b6bd e9b1 a5bd 7107 6a3e 14cc 513d
00000190: 2ef5 823e 9cb8 003e 386c 7e3e 0407 eb3d
000001a0: 6eb0 473e 893a 9c3f 7f3a b63d f00a 9f3e
000001b0: 8e49 4a3e 7f38 33bd 45c0 5a3d 8d69 903f
000001c0: d998 773f 9bff 123d 6be7 2f3e f8a5 3b3d
000001d0: ebd4 223e d761 f83d b49d 433e 2347 703d
000001e0: c44a 94bb 0cb4 253d 7526 223c a629 7e3d
000001f0: b8b0 223e 6c38 333f 9701 59bc 977f 3d3e
00000200: eb78 843e 18f8 8e3d 4529 893f d943 7e3d
00000210: 2cf5 9b3e 9c06 873d 7cc6 2e3d c5ce ee3e
00000220: cc50 803e 9dbb 113d 82b5 813f 2fae c03d
00000230: 10b6 5fbd d28f 123e b943 0d3d 63e3 683d
00000240: cb3b 273c 6e5e 833d c054 da3d c0c4 d3bc
00000250: df05 b83d d927 333e 0e52 cc3e 8fa2 bb3d
00000260: fbb0 1f3d 189a e73e 39dc 89bd fd22 783d
00000270: 388d 053e e305 fa3d ef31 9b3e 04b3 f33d
00000280: 3699 8c3f 617d 0c3e 8b62 803d b86a 853d
00000290: fdb1 9c3d f407 573b 201c cebd 4dfc ab3c
000002a0: 7818 603c e674 ec3c 9161 063e 4263 353d
000002b0: 7d68 423e 289d c6bd 6976 dc3d ec8a bc3e
000002c0: b659 c53d 2187 9e3d 0263 ad3d 3829 61be
000002d0: 1732 38bd 0f72 e8bd 7679 863d 9d04 123e
000002e0: 9d32 b23e 46a8 913c cd2e 133d 1a2c bd3c
000002f0: 7c07 4b3e 76de 593d 432b 193e 68ca b03e
00000300: 9332 c23e 323f fabd 0d1b e13c c9b5 9c3d
00000310: a3ad 273e 9b36 133e 938b 253c a06d 743e
00000320: 3982 4a3e 1045 093f 9a84 55bd 86f8 c53d
00000330: 86f4 18ba d547 e23c f7a7 4d3e 0314 a6bd
00000340: e6fc 0e3e 010e 353e 49c7 5e3e ac0d 093e
00000350: 22e6 303e 12a9 7d3e 536d b93d aac7 843d
00000360: e42f 63be 1072 0e3e ccea 363e eda6 163d
00000370: 298f 3e3e 5569 e43c 70a5 f73c 4876 8f3e
00000380: 6ea7 61be 94bb aebc e467 753e a99e 023e
00000390: 945f cc3d 8cae c5bd 2325 d73e 0ca6 2bbe
000003a0: ad4e 873d 3a35 a03d 9ff5 d03c d826 0d3e
000003b0: 07be df3d 8a92 713c b55c cb3e 29df 683d
000003c0: 9eef 043d 83c9 033e d753 5e3d 091e 7a3e
000003d0: e8f8 623e 5178 ed3b 5bfb 9abd b80a bf3d
000003e0: 7763 0f3e ba6f eebd a86f 263d 3c31 2b3e
000003f0: c5ab 663e de87 f83d ad56 1bbe f1f1 ea3d

net.4.weight f4 [27, 256]
0.55566174 0.31275555 0.13741007 0.4194103 0.43896782 0.31039944 0.44875383 0.4359199
0.45964202 0.49215707 0.31311864 0.46802685 0.23084804 0.2672934 0.32282364 0.33119214
-0.017194238 0.34088305 0.40483004 0.4047587 -0.006024591 0.25306496 0.39269304 -0.2859472
-0.7231248 0.4058399 0.22051513 0.37053528 0.37110505 0.40429214 0.38680604 -0.006668222
0.4113909 0.37146023 0.3813568 0.20049323 0.4191797 0.4397007 0.41100857 0.4452531
0.45327783 0.38009065 0.39433232 0.3763846 0.2778769 0.32567185 0.3272763 0.4246847
0.3477969 0.56758356 -0.05611936 0.50477076 0.30563223 0.4391302 0.38932896 0.2625065
0.124958426 0.42197752 0.29906738 0.40636855 0.34953135 0.37281522 0.38806263 0.0007482101
0.45953932 0.35952288 -0.18694936 0.29409197 0.2667494 0.37832192 0.5865741 0.08583037
0.3291579 0.34459803 0.5211623 0.34802148 0.44504794 -0.2444595 0.42487642 0.27346763
-0.7396306 0.42360082 0.55656415 -0.038042814 0.41551948 0.40438986 0.12669507 0.36829388
0.36525443 0.37571993 0.41743812 0.1981472 0.3326214 0.14399093 0.3901407 -0.454107
0.4773226 0.5048275 0.30814686 0.4398355 0.32589182 0.41953573 0.35658205 0.4287068
0.4328437 -1.1029698 0.37817982 0.0025542567 0.31503806 0.5562519 0.4443758 -0.81618136
-0.13395633 0.32953656 0.4459307 0.3270351 0.22555326 0.41265512 0.38528106 -0.00074152794
0.37932867 0.33042407 0.5057418 0.396526 0.32404658 -0.6049855 0.3062691 0.23787844
0.25465372 0.3386117 -0.74248856 0.31573194 0.35700122 0.2757355 0.4073615 -0.7658431
0.36101377 0.38196015 -0.45988533 0.45867532 0.39691958 0.40319008 0.424406 0.35016173
0.39031354 0.41137427 0.32871974 0.22331212 0.3539089 0.26951092 0.91517055 0.352846
0.46146128 0.13756834 0.3573599 0.46244526 0.39413062 0.47997233 0.33248407 0.4139149
-0.9584669 0.41995358 0.43332356 0.46310043 0.5012835 0.88524824 0.6272679 0.477727
0.43892708 0.48763797 0.40668043 0.2916721 0.38058677 0.5443181 0.48119864 -0.217281
0.42599037 0.4304447 0.36323833 0.5072692 0.46183875 0.48200342 0.35962483 0.36884692
-0.08380802 0.4767677 0.44212064 0.3928723 -0.2169438 0.2891586 0.30066192 -0.15251519
0.101002365 0.4284154 0.41127935 0.31273067 0.46617338 0.35961702 0.5570098 0.2314863
0.40923232 -0.6580403 0.4285683 0.49205485 0.5891431 0.42654395 0.3906499 0.36888376
0.40719378 0.37159032 0.19480455 0.38567418 0.3842351 0.39918903 0.34806055 0.294881
0.31561053 0.36926875 0.2984873 0.2525401 0.30121312 0.39262056 0.31604758 0.24106134
0.39874694 0.38896835 0.31606725 0.3441404 0.36976382 0.58012265 -1.0092471 0.57737845
0.422763 0.45295405 0.29259226 0.42067078 -0.09998256 0.44101584 0.0067761242 0.45589712
0.40555584 0.2605672 0.3246881 0.39204404 0.34851506 0.38411748 0.41845956 0.35847524
0.2800251 0.44225398 -0.056613266 0.38229567 0.31521666 0.35810784 0.541122 0.3685967
00000000: d93f 0e3f 7f21 a03e 3ab5 0c3e f2bc d63e
00000010: 64c0 e03e adec 9e3e 10c3 e53e e530 df3e
00000020: 3356 eb3e 03fc fb3e 1651 a03e 37a1 ef3e
00000030: 6e63 6c3e aeda 883e 2449 a53e 0492 a93e
00000040: eeda 8cbc 3988 ae3e e245 cf3e 883c cf3e
00000050: ef69 c5bb bb91 813e 100f c93e ac67 92be
00000060: b51e 39bf 3fca cf3e b8ce 613e cdb6 bd3e
00000070: 7b01 be3e 61ff ce3e 710b c63e 1a81 dabb
00000080: d4a1 d23e 0930 be3e 3341 c33e 194e 4d3e
00000090: b99e d63e 7320 e13e b76f d23e 37f8 e33e
000000a0: 0814 e83e 3e9b c23e ede5 c93e 7bb5 c03e
000000b0: e245 8e3e 76be a63e c290 a73e 4670 d93e
000000c0: 6f12 b23e 284d 113f 6add 65bd a838 013f
000000d0: d47b 9c3e acd5 e03e 2056 c73e 4167 863e
000000e0: 34ea ff3d 700d d83e 5c1f 993e 8a0f d03e
000000f0: c6f5 b23e a3e1 be3e 25b0 c63e 8823 443a
00000100: bd48 eb3e 6213 b83e a76f 3fbe 3993 963e
00000110: 6193 883e 69b3 c13e b829 163f d5c7 af3d
00000120: 6287 a83e 276f b03e e46a 053f df2f b23e
00000130: 53dd e33e 9753 7abe 6789 d93e f303 8c3e
00000140: 6e58 3dbf 35e2 d83e fd7a 0e3f c8d2 1bbd
00000150: f8be d43e 300c cf3e 5abc 013e 0491 bc3e
00000160: a102 bb3e 5d5e c03e 73ba d53e 19e7 4a3e
00000170: 5a4d aa3e 5c72 133e 86c0 c73e b680 e8be
00000180: a163 f43e 603c 013f 6dc5 9d3e 1e32 e13e
00000190: 4bdb a63e 63cd d63e ec91 b63e 757f db3e
000001a0: b09d dd3e 1d2e 8dbf c9a0 c13e 5165 273b
000001b0: ab4c a13e 8666 0e3f 3a85 e33e 43f1 50bf
000001c0: d92b 09be 04b9 a83e 0751 e43e 2571 a73e
000001d0: 6ff7 663e 8847 d33e 8f43 c53e 1963 42ba
000001e0: 5e37 c23e 582d a93e 4b78 013f 7505 cb3e
000001f0: 6fe9 a53e 54e0 1abf 4ecf 9c3e 6896 733e
00000200: f961 823e 835e ad3e bb13 3ebf 9ea7 a13e
00000210: ddc8 b63e 342d 8d3e b091 d03e 4b0e 44bf
00000220: ccd6 b83e 4890 c33e 1776 ebbe 7ed7 ea3e
00000230: 0b39 cb3e ee6e ce3e be4b d93e 6648 b33e
00000240: 2dd7 c73e a69f d23e f44d a83e efab 643e
00000250: 8c33 b53e 56fd 893e 9e48 6a3f 3ba8 b43e
00000260: a744 ec3e b7de 0c3e e0f7 b63e a0c5 ec3e
00000270: 7dcb c93e efbe f53e 5a3b aa3e a7ec d33e
00000280: 165e 75bf 2804 d73e 96dc dd3e 801b ed3e
00000290: 1e54 003f a19f 623f a194 203f a298 f43e
000002a0: 0dbb e03e afab f93e 6b38 d03e 0c56 953e
000002b0: 45dc c23e 6e58 0b3f ab5f f63e e97e 5ebe
000002c0: 691b da3e 3f63 dc3e 60fa b93e 65dc 013f
000002d0: 2176 ec3e 27c9 f63e bf20 b83e 81d9 bc3e
000002e0: 8aa3 abbd e51a f43e a35d e23e 8f26 c93e
000002f0: 8426 5ebe 990c 943e 5cf0 993e f12c 1cbe
00000300: 54da ce3d 4359 db3e 3593 d23e 3c1e a03e
00000310: 47ae ee3e b91f b83e 3298 0e3f bf0a 6d3e
00000320: e686 d13e 5475 28bf 4e6d db3e 9dee fb3e
00000330: 15d2 163f f863 da3e 4403 c83e 55de bc3e
00000340: b47b d03e 1641 be3e d87a 473e 1677 c53e
00000350: 77ba c43e 8162 cc3e fe34 b23e a4fa 963e
00000360: b497 a13e cb10 bd3e 54d3 983e f04c 813e
00000370: 9b38 9a3e 9005 c93e fdd0 a13e c9d8 763e
00000380: 8f28 cc3e dc26 c73e 91d3 a13e 2c33 b03e
00000390: af51 bd3e eb82 143f 022f 81bf 13cf 133f
000003a0: 6474 d83e 98e9 e73e a7ce 953e 2962 d73e
000003b0: a8c3 ccbd d4cc e13e 400a de3b 596b e93e
000003c0: 04a5 cf3e 1069 853e 853d a63e ffb9 c83e
000003d0: 9170 b23e 0cab c43e 5540 d63e 118a b73e
000003e0: 735f 8f3e 1d6f e23e 50e3 67bd 42bc c33e
000003f0: 1464 a13e e959 b73e f986 0a3f b5b8 bc3e

net.4.bias f4 [27]
-0.27296004 -0.22829829 -0.026024349 -0.16332567 -0.043280553 0.08409489 -0.028414926 -0.038953267
-0.07391161 0.14934279 0.3595042 0.11098428 0.21478902 0.0037230158 0.13164882 -0.035352264
0.18997341 0.019192873 0.39914265 0.43971604 0.4497394 -0.08194593 -0.13596259 0.24131809
-0.03869483 0.019037856 -0.20688324
00000000: 6bc1 8bbe 07c7 69be 0431 d5bc d83e 27be
00000010: f346 31bd f139 ac3d 6bc6 e8bc 768d 1fbd
00000020: f85e 97bd 51ed 183e ef10 b83e ba4b e33d
00000030: a7f1 5b3e d7fd 733b f3ce 063e 89cd 10bd
00000040: 6488 423e 5f3a 9d3c 6d5c cc3e 7622 e13e
00000050: 3e44 e63e 45d3 a7bd c739 0bbe 171c 773e
00000060: 787e 1ebd 47f5 9b3c 33d9 53be
